…
To enable the following instructions: SSE3 SSE4.1 SSE4.2 AVX AVX2 AVX512F AVX512_VNNI FMA, in other operations, rebuild TensorFlow with the appropriate compiler flags.
Training CNN architecture...
Loading features and targets...
Dataset shape: X=(100000, 200), y=(100000, 3)
Train: (72000, 200), Val: (8000, 200), Test: (20000, 200)
Building CNN model...
Model: "CNN_Calibrator"
+--------------------------------------------------------------------------+
| Layer (type)                    | Output Shape           |       Param # |
|---------------------------------+------------------------+---------------|
| input_layer (InputLayer)        | (None, 200)            |             0 |
|---------------------------------+------------------------+---------------|
| reshape (Reshape)               | (None, 20, 10, 1)      |             0 |
|---------------------------------+------------------------+---------------|
| conv2d (Conv2D)                 | (None, 20, 10, 32)     |           320 |
|---------------------------------+------------------------+---------------|
| batch_normalization             | (None, 20, 10, 32)     |           128 |
| (BatchNormalization)            |                        |               |
|---------------------------------+------------------------+---------------|
| max_pooling2d (MaxPooling2D)    | (None, 10, 5, 32)      |             0 |
|---------------------------------+------------------------+---------------|
| dropout (Dropout)               | (None, 10, 5, 32)      |             0 |
|---------------------------------+------------------------+---------------|
| conv2d_1 (Conv2D)               | (None, 10, 5, 64)      |        18,496 |
|---------------------------------+------------------------+---------------|
| batch_normalization_1           | (None, 10, 5, 64)      |           256 |
| (BatchNormalization)            |                        |               |
|---------------------------------+------------------------+---------------|
| max_pooling2d_1 (MaxPooling2D)  | (None, 5, 3, 64)       |             0 |
|---------------------------------+------------------------+---------------|
| dropout_1 (Dropout)             | (None, 5, 3, 64)       |             0 |
|---------------------------------+------------------------+---------------|
| conv2d_2 (Conv2D)               | (None, 5, 3, 128)      |        73,856 |
|---------------------------------+------------------------+---------------|
| batch_normalization_2           | (None, 5, 3, 128)      |           512 |
| (BatchNormalization)            |                        |               |
|---------------------------------+------------------------+---------------|
| dropout_2 (Dropout)             | (None, 5, 3, 128)      |             0 |
|---------------------------------+------------------------+---------------|
| flatten (Flatten)               | (None, 1920)           |             0 |
|---------------------------------+------------------------+---------------|
| dense (Dense)                   | (None, 128)            |       245,888 |
|---------------------------------+------------------------+---------------|
| batch_normalization_3           | (None, 128)            |           512 |
| (BatchNormalization)            |                        |               |
|---------------------------------+------------------------+---------------|
| dropout_3 (Dropout)             | (None, 128)            |             0 |
|---------------------------------+------------------------+---------------|
| dense_1 (Dense)                 | (None, 64)             |         8,256 |
|---------------------------------+------------------------+---------------|
| dropout_4 (Dropout)             | (None, 64)             |             0 |
|---------------------------------+------------------------+---------------|
| dense_2 (Dense)                 | (None, 3)              |           195 |
+--------------------------------------------------------------------------+
 Total params: 348,419 (1.33 MB)
 Trainable params: 347,715 (1.33 MB)
 Non-trainable params: 704 (2.75 KB)

Training CNN model for 30 epochs...
Epoch 1/30

[1m   1/2250[0m [37m====================[0m [1m2:30:55[0m 4s/step - loss: 2.7832 - mae: 1.3029
[1m   5/2250[0m [37m====================[0m [1m31s[0m 14ms/step - loss: 2.7448 - mae: 1.2433  
…
