…
To enable the following instructions: SSE3 SSE4.1 SSE4.2 AVX AVX2 AVX512F AVX512_VNNI FMA, in other operations, rebuild TensorFlow with the appropriate compiler flags.
Training ResNet architecture...
Loading features and targets...
Dataset shape: X=(100000, 200), y=(100000, 3)
Train: (72000, 200), Val: (8000, 200), Test: (20000, 200)
Building RESNET model...
Model: "ResNet_Calibrator"
+--------------------------------------------------------------------------+
| Layer (type)        | Output Shape      |    Param # | Connected to      |
|---------------------+-------------------+------------+-------------------|
| input_layer         | (None, 200)       |          0 | -                 |
| (InputLayer)        |                   |            |                   |
|---------------------+-------------------+------------+-------------------|
| dense (Dense)       | (None, 256)       |     51,456 | input_layer[0][0] |
|---------------------+-------------------+------------+-------------------|
| batch_normalization | (None, 256)       |      1,024 | dense[0][0]       |
| (BatchNormalizatio… |                   |            |                   |
|---------------------+-------------------+------------+-------------------|
| dense_1 (Dense)     | (None, 256)       |     65,792 | batch_normalizat… |
|---------------------+-------------------+------------+-------------------|
| batch_normalizatio… | (None, 256)       |      1,024 | dense_1[0][0]     |
| (BatchNormalizatio… |                   |            |                   |
|---------------------+-------------------+------------+-------------------|
| dropout (Dropout)   | (None, 256)       |          0 | batch_normalizat… |
|---------------------+-------------------+------------+-------------------|
| dense_2 (Dense)     | (None, 256)       |     65,792 | dropout[0][0]     |
|---------------------+-------------------+------------+-------------------|
| batch_normalizatio… | (None, 256)       |      1,024 | dense_2[0][0]     |
| (BatchNormalizatio… |                   |            |                   |
|---------------------+-------------------+------------+-------------------|
| add (Add)           | (None, 256)       |          0 | batch_normalizat… |
|                     |                   |            | batch_normalizat… |
|---------------------+-------------------+------------+-------------------|
| activation          | (None, 256)       |          0 | add[0][0]         |
| (Activation)        |                   |            |                   |
|---------------------+-------------------+------------+-------------------|
| dropout_1 (Dropout) | (None, 256)       |          0 | activation[0][0]  |
|---------------------+-------------------+------------+-------------------|
| dense_3 (Dense)     | (None, 128)       |     32,896 | dropout_1[0][0]   |
|---------------------+-------------------+------------+-------------------|
| batch_normalizatio… | (None, 128)       |        512 | dense_3[0][0]     |
| (BatchNormalizatio… |                   |            |                   |
|---------------------+-------------------+------------+-------------------|
| dropout_2 (Dropout) | (None, 128)       |          0 | batch_normalizat… |
|---------------------+-------------------+------------+-------------------|
| dense_4 (Dense)     | (None, 128)       |     16,512 | dropout_2[0][0]   |
|---------------------+-------------------+------------+-------------------|
| batch_normalizatio… | (None, 128)       |        512 | dense_4[0][0]     |
| (BatchNormalizatio… |                   |            |                   |
|---------------------+-------------------+------------+-------------------|
| dense_5 (Dense)     | (None, 128)       |     32,896 | dropout_1[0][0]   |
|---------------------+-------------------+------------+-------------------|
| add_1 (Add)         | (None, 128)       |          0 | batch_normalizat… |
|                     |                   |            | dense_5[0][0]     |
|---------------------+-------------------+------------+-------------------|
| activation_1        | (None, 128)       |          0 | add_1[0][0]       |
| (Activation)        |                   |            |                   |
|---------------------+-------------------+------------+-------------------|
| dropout_3 (Dropout) | (None, 128)       |          0 | activation_1[0][… |
|---------------------+-------------------+------------+-------------------|
| dense_6 (Dense)     | (None, 64)        |      8,256 | dropout_3[0][0]   |
|---------------------+-------------------+------------+-------------------|
| batch_normalizatio… | (None, 64)        |        256 | dense_6[0][0]     |
| (BatchNormalizatio… |                   |            |                   |
|---------------------+-------------------+------------+-------------------|
| dropout_4 (Dropout) | (None, 64)        |          0 | batch_normalizat… |
|---------------------+-------------------+------------+-------------------|
| dense_7 (Dense)     | (None, 64)        |      4,160 | dropout_4[0][0]   |
|---------------------+-------------------+------------+-------------------|
| batch_normalizatio… | (None, 64)        |        256 | dense_7[0][0]     |
| (BatchNormalizatio… |                   |            |                   |
|---------------------+-------------------+------------+-------------------|
| dense_8 (Dense)     | (None, 64)        |      8,256 | dropout_3[0][0]   |
|---------------------+-------------------+------------+-------------------|
| add_2 (Add)         | (None, 64)        |          0 | batch_normalizat… |
|                     |                   |            | dense_8[0][0]     |
|---------------------+-------------------+------------+-------------------|
| activation_2        | (None, 64)        |          0 | add_2[0][0]       |
| (Activation)        |                   |            |                   |
|---------------------+-------------------+------------+-------------------|
| dropout_5 (Dropout) | (None, 64)        |          0 | activation_2[0][… |
|---------------------+-------------------+------------+-------------------|
| dense_9 (Dense)     | (None, 3)         |        195 | dropout_5[0][0]   |
+--------------------------------------------------------------------------+
 Total params: 290,819 (1.11 MB)
 Trainable params: 288,515 (1.10 MB)
 Non-trainable params: 2,304 (9.00 KB)

Training RESNET model for 30 epochs...
Epoch 1/30

[1m   1/2250[0m [37m====================[0m [1m10:23:42[0m 17s/step - loss: 5.6514 - mae: 1.6711
[1m   4/2250[0m [37m====================[0m [1m43s[0m 19ms/step - loss: 5.0218 - mae: 1.5687    
…
